…
cfg: {'seed': 10, 'dataset': {'train_path': '/mnt/fastdata/elq20xd/channel_estimation/dataset11/train_Dataset_dB-25_N36_K4_L4_S9_Setup200_Reliz500.mat', 'valid_path': '/mnt/fastdata/elq20xd/channel_estimation/dataset11/valid_Dataset_dB-25_N36_K4_L4_S9_Setup20_Reliz500.mat', 'with_Vpinv': True}, 'dataloader': {'shuffle': True, 'batch_size': 512, 'num_workers': 1}, 'model': {'channel_index': 32, 'num_layers': 3}, 'logger': {'path': 'logger/120225/DnCNNMultiBlock_B3Depth16_dB-15_N36K4M4_L4_S9_Set100_reaL1000_L1loss_1202_lr1e3.log'}}
model:: DiaUNet1D(
  (encoders): ModuleList(
    (0): BasicUnetBlock(
      (blocks): ModuleList(
        (0): Sequential(
          (0): Stdconv1D(
            (conv): Conv1d(2, 32, kernel_size=(3,), stride=(1,), padding=(1,))
            (bn): BatchNorm1d(32, eps=1e-05, momentum=0.1, affine=True, track_running_stats=True)
            (relu): ReLU(inplace=True)
          )
        )
        (1): DynamicDilatedConv(
          (layers): ModuleList(
            (0): Sequential(
              (0): Conv1d(32, 16, kernel_size=(3,), stride=(1,), padding=(1,))
              (1): BatchNorm1d(16, eps=1e-05, momentum=0.1, affine=True, track_running_stats=True)
              (2): ReLU(inplace=True)
            )
            (1): Sequential(
              (0): Conv1d(16, 8, kernel_size=(3,), stride=(1,), padding=(2,), dilation=(2,))
              (1): BatchNorm1d(8, eps=1e-05, momentum=0.1, affine=True, track_running_stats=True)
              (2): ReLU(inplace=True)
            )
            (2): Sequential(
              (0): Conv1d(8, 4, kernel_size=(3,), stride=(1,), padding=(4,), dilation=(4,))
              (1): BatchNorm1d(4, eps=1e-05, momentum=0.1, affine=True, track_running_stats=True)
              (2): ReLU(inplace=True)
            )
            (3): Sequential(
              (0): Conv1d(4, 32, kernel_size=(3,), stride=(1,), padding=(8,), dilation=(8,))
              (1): BatchNorm1d(32, eps=1e-05, momentum=0.1, affine=True, track_running_stats=True)
              (2): ReLU(inplace=True)
            )
          )
          (projection): Conv1d(60, 32, kernel_size=(1,), stride=(1,))
        )
      )
    )
    (1): BasicUnetBlock(
      (blocks): ModuleList(
        (0): Sequential(
          (0): Stdconv1D(
            (conv): Conv1d(32, 64, kernel_size=(3,), stride=(1,), padding=(1,))
            (bn): BatchNorm1d(64, eps=1e-05, momentum=0.1, affine=True, track_running_stats=True)
            (relu): ReLU(inplace=True)
          )
        )
        (1): DynamicDilatedConv(
          (layers): ModuleList(
            (0): Sequential(
              (0): Conv1d(64, 32, kernel_size=(3,), stride=(1,), padding=(1,))
              (1): BatchNorm1d(32, eps=1e-05, momentum=0.1, affine=True, track_running_stats=True)
              (2): ReLU(inplace=True)
            )
            (1): Sequential(
              (0): Conv1d(32, 16, kernel_size=(3,), stride=(1,), padding=(2,), dilation=(2,))
              (1): BatchNorm1d(16, eps=1e-05, momentum=0.1, affine=True, track_running_stats=True)
              (2): ReLU(inplace=True)
            )
            (2): Sequential(
              (0): Conv1d(16, 8, kernel_size=(3,), stride=(1,), padding=(4,), dilation=(4,))
              (1): BatchNorm1d(8, eps=1e-05, momentum=0.1, affine=True, track_running_stats=True)
              (2): ReLU(inplace=True)
            )
            (3): Sequential(
              (0): Conv1d(8, 64, kernel_size=(3,), stride=(1,), padding=(8,), dilation=(8,))
              (1): BatchNorm1d(64, eps=1e-05, momentum=0.1, affine=True, track_running_stats=True)
              (2): ReLU(inplace=True)
            )
          )
          (projection): Conv1d(120, 64, kernel_size=(1,), stride=(1,))
        )
      )
    )
    (2): BasicUnetBlock(
      (blocks): ModuleList(
        (0): Sequential(
          (0): Stdconv1D(
            (conv): Conv1d(64, 128, kernel_size=(3,), stride=(1,), padding=(1,))
            (bn): BatchNorm1d(128, eps=1e-05, momentum=0.1, affine=True, track_running_stats=True)
            (relu): ReLU(inplace=True)
          )
        )
        (1): DynamicDilatedConv(
          (layers): ModuleList(
            (0): Sequential(
              (0): Conv1d(128, 64, kernel_size=(3,), stride=(1,), padding=(1,))
              (1): BatchNorm1d(64, eps=1e-05, momentum=0.1, affine=True, track_running_stats=True)
              (2): ReLU(inplace=True)
            )
            (1): Sequential(
              (0): Conv1d(64, 32, kernel_size=(3,), stride=(1,), padding=(2,), dilation=(2,))
              (1): BatchNorm1d(32, eps=1e-05, momentum=0.1, affine=True, track_running_stats=True)
              (2): ReLU(inplace=True)
            )
            (2): Sequential(
              (0): Conv1d(32, 16, kernel_size=(3,), stride=(1,), padding=(4,), dilation=(4,))
              (1): BatchNorm1d(16, eps=1e-05, momentum=0.1, affine=True, track_running_stats=True)
              (2): ReLU(inplace=True)
            )
            (3): Sequential(
              (0): Conv1d(16, 128, kernel_size=(3,), stride=(1,), padding=(8,), dilation=(8,))
              (1): BatchNorm1d(128, eps=1e-05, momentum=0.1, affine=True, track_running_stats=True)
              (2): ReLU(inplace=True)
            )
          )
          (projection): Conv1d(240, 128, kernel_size=(1,), stride=(1,))
        )
      )
    )
  )
  (pools): ModuleList(
    (0): MaxPool1d(kernel_size=2, stride=2, padding=0, dilation=1, ceil_mode=False)
    (1): MaxPool1d(kernel_size=2, stride=2, padding=0, dilation=1, ceil_mode=False)
    (2): MaxPool1d(kernel_size=2, stride=2, padding=0, dilation=1, ceil_mode=False)
  )
  (bottleneck): BasicUnetBlock(
    (blocks): ModuleList(
      (0): Sequential(
        (0): Stdconv1D(
          (conv): Conv1d(128, 256, kernel_size=(3,), stride=(1,), padding=(1,))
          (bn): BatchNorm1d(256, eps=1e-05, momentum=0.1, affine=True, track_running_stats=True)
          (relu): ReLU(inplace=True)
        )
      )
      (1): DynamicDilatedConv(
        (layers): ModuleList(
          (0): Sequential(
            (0): Conv1d(256, 128, kernel_size=(3,), stride=(1,), padding=(1,))
            (1): BatchNorm1d(128, eps=1e-05, momentum=0.1, affine=True, track_running_stats=True)
            (2): ReLU(inplace=True)
          )
          (1): Sequential(
            (0): Conv1d(128, 64, kernel_size=(3,), stride=(1,), padding=(2,), dilation=(2,))
            (1): BatchNorm1d(64, eps=1e-05, momentum=0.1, affine=True, track_running_stats=True)
            (2): ReLU(inplace=True)
          )
          (2): Sequential(
            (0): Conv1d(64, 32, kernel_size=(3,), stride=(1,), padding=(4,), dilation=(4,))
            (1): BatchNorm1d(32, eps=1e-05, momentum=0.1, affine=True, track_running_stats=True)
            (2): ReLU(inplace=True)
          )
          (3): Sequential(
            (0): Conv1d(32, 256, kernel_size=(3,), stride=(1,), padding=(8,), dilation=(8,))
            (1): BatchNorm1d(256, eps=1e-05, momentum=0.1, affine=True, track_running_stats=True)
            (2): ReLU(inplace=True)
          )
        )
        (projection): Conv1d(480, 256, kernel_size=(1,), stride=(1,))
      )
    )
  )
  (upconvs): ModuleList(
    (0): ConvTranspose1d(256, 128, kernel_size=(2,), stride=(2,))
    (1): ConvTranspose1d(128, 64, kernel_size=(2,), stride=(2,))
    (2): ConvTranspose1d(64, 32, kernel_size=(2,), stride=(2,))
  )
  (decoders): ModuleList(
    (0): BasicUnetBlock(
      (blocks): ModuleList(
        (0): Sequential(
          (0): Stdconv1D(
            (conv): Conv1d(256, 128, kernel_size=(3,), stride=(1,), padding=(1,))
            (bn): BatchNorm1d(128, eps=1e-05, momentum=0.1, affine=True, track_running_stats=True)
            (relu): ReLU(inplace=True)
          )
        )
        (1): DynamicDilatedConv(
          (layers): ModuleList(
            (0): Sequential(
              (0): Conv1d(128, 64, kernel_size=(3,), stride=(1,), padding=(1,))
              (1): BatchNorm1d(64, eps=1e-05, momentum=0.1, affine=True, track_running_stats=True)
              (2): ReLU(inplace=True)
            )
            (1): Sequential(
              (0): Conv1d(64, 32, kernel_size=(3,), stride=(1,), padding=(2,), dilation=(2,))
              (1): BatchNorm1d(32, eps=1e-05, momentum=0.1, affine=True, track_running_stats=True)
              (2): ReLU(inplace=True)
            )
            (2): Sequential(
              (0): Conv1d(32, 16, kernel_size=(3,), stride=(1,), padding=(4,), dilation=(4,))
              (1): BatchNorm1d(16, eps=1e-05, momentum=0.1, affine=True, track_running_stats=True)
              (2): ReLU(inplace=True)
            )
            (3): Sequential(
              (0): Conv1d(16, 128, kernel_size=(3,), stride=(1,), padding=(8,), dilation=(8,))
              (1): BatchNorm1d(128, eps=1e-05, momentum=0.1, affine=True, track_running_stats=True)
              (2): ReLU(inplace=True)
            )
          )
          (projection): Conv1d(240, 128, kernel_size=(1,), stride=(1,))
        )
      )
    )
    (1): BasicUnetBlock(
      (blocks): ModuleList(
        (0): Sequential(
          (0): Stdconv1D(
            (conv): Conv1d(128, 64, kernel_size=(3,), stride=(1,), padding=(1,))
            (bn): BatchNorm1d(64, eps=1e-05, momentum=0.1, affine=True, track_running_stats=True)
            (relu): ReLU(inplace=True)
          )
        )
        (1): DynamicDilatedConv(
          (layers): ModuleList(
            (0): Sequential(
              (0): Conv1d(64, 32, kernel_size=(3,), stride=(1,), padding=(1,))
              (1): BatchNorm1d(32, eps=1e-05, momentum=0.1, affine=True, track_running_stats=True)
              (2): ReLU(inplace=True)
            )
            (1): Sequential(
              (0): Conv1d(32, 16, kernel_size=(3,), stride=(1,), padding=(2,), dilation=(2,))
              (1): BatchNorm1d(16, eps=1e-05, momentum=0.1, affine=True, track_running_stats=True)
              (2): ReLU(inplace=True)
            )
            (2): Sequential(
              (0): Conv1d(16, 8, kernel_size=(3,), stride=(1,), padding=(4,), dilation=(4,))
              (1): BatchNorm1d(8, eps=1e-05, momentum=0.1, affine=True, track_running_stats=True)
              (2): ReLU(inplace=True)
            )
            (3): Sequential(
              (0): Conv1d(8, 64, kernel_size=(3,), stride=(1,), padding=(8,), dilation=(8,))
              (1): BatchNorm1d(64, eps=1e-05, momentum=0.1, affine=True, track_running_stats=True)
              (2): ReLU(inplace=True)
            )
          )
          (projection): Conv1d(120, 64, kernel_size=(1,), stride=(1,))
        )
      )
    )
    (2): BasicUnetBlock(
      (blocks): ModuleList(
        (0): Sequential(
          (0): Stdconv1D(
            (conv): Conv1d(64, 32, kernel_size=(3,), stride=(1,), padding=(1,))
            (bn): BatchNorm1d(32, eps=1e-05, momentum=0.1, affine=True, track_running_stats=True)
            (relu): ReLU(inplace=True)
          )
        )
        (1): DynamicDilatedConv(
          (layers): ModuleList(
            (0): Sequential(
              (0): Conv1d(32, 16, kernel_size=(3,), stride=(1,), padding=(1,))
              (1): BatchNorm1d(16, eps=1e-05, momentum=0.1, affine=True, track_running_stats=True)
              (2): ReLU(inplace=True)
            )
            (1): Sequential(
              (0): Conv1d(16, 8, kernel_size=(3,), stride=(1,), padding=(2,), dilation=(2,))
              (1): BatchNorm1d(8, eps=1e-05, momentum=0.1, affine=True, track_running_stats=True)
              (2): ReLU(inplace=True)
            )
            (2): Sequential(
              (0): Conv1d(8, 4, kernel_size=(3,), stride=(1,), padding=(4,), dilation=(4,))
              (1): BatchNorm1d(4, eps=1e-05, momentum=0.1, affine=True, track_running_stats=True)
              (2): ReLU(inplace=True)
            )
            (3): Sequential(
              (0): Conv1d(4, 32, kernel_size=(3,), stride=(1,), padding=(8,), dilation=(8,))
              (1): BatchNorm1d(32, eps=1e-05, momentum=0.1, affine=True, track_running_stats=True)
              (2): ReLU(inplace=True)
            )
          )
          (projection): Conv1d(60, 32, kernel_size=(1,), stride=(1,))
        )
      )
    )
  )
  (final_conv): Conv1d(32, 2, kernel_size=(1,), stride=(1,))
)
Estimated model size: 3.09 MB
loss function:: L1Loss()
[2025-02-17 22:44:44] Epoch 1/50, Loss: 100.006325, Train_MMSE: 0.644479, NMMSE: 0.668452, LS_NMSE: 2.005968, Lr: 0.001
[2025-02-17 22:45:26] Epoch 2/50, Loss: 91.669624, Train_MMSE: 0.578273, NMMSE: 0.587488, LS_NMSE: 2.005968, Lr: 0.001
[2025-02-17 22:46:07] Epoch 3/50, Loss: 66.043602, Train_MMSE: 0.252559, NMMSE: 0.284505, LS_NMSE: 2.005968, Lr: 0.001
…
cfg: {'seed': 10, 'dataset': {'train_path': '/mnt/fastdata/elq20xd/channel_estimation/dataset11/train_Dataset_dB-25_N36_K4_L4_S9_Setup200_Reliz500.mat', 'valid_path': '/mnt/fastdata/elq20xd/channel_estimation/dataset11/valid_Dataset_dB-25_N36_K4_L4_S9_Setup20_Reliz500.mat', 'with_Vpinv': True}, 'dataloader': {'shuffle': True, 'batch_size': 512, 'num_workers': 1}, 'model': {'channel_index': 32, 'num_layers': 3}, 'logger': {'path': 'logger/120225/DnCNNMultiBlock_B3Depth16_dB-15_N36K4M4_L4_S9_Set100_reaL1000_L1loss_1202_lr1e3.log'}}
model:: DnCNN_MultiBlock_ds(
  (layers): ModuleList(
    (0): Sequential(
      (0): Conv2d(2, 64, kernel_size=(3, 3), stride=(1, 1), padding=(1, 1), bias=False)
      (1): BatchNorm2d(64, eps=1e-05, momentum=0.1, affine=True, track_running_stats=True)
      (2): ReLU(inplace=True)
      (3): Conv2d(64, 64, kernel_size=(3, 3), stride=(1, 1), padding=(1, 1), bias=False)
      (4): BatchNorm2d(64, eps=1e-05, momentum=0.1, affine=True, track_running_stats=True)
      (5): ReLU(inplace=True)
      (6): Conv2d(64, 64, kernel_size=(3, 3), stride=(1, 1), padding=(1, 1), bias=False)
      (7): BatchNorm2d(64, eps=1e-05, momentum=0.1, affine=True, track_running_stats=True)
      (8): ReLU(inplace=True)
      (9): Conv2d(64, 64, kernel_size=(3, 3), stride=(1, 1), padding=(1, 1), bias=False)
      (10): BatchNorm2d(64, eps=1e-05, momentum=0.1, affine=True, track_running_stats=True)
      (11): ReLU(inplace=True)
      (12): Conv2d(64, 64, kernel_size=(3, 3), stride=(1, 1), padding=(1, 1), bias=False)
      (13): BatchNorm2d(64, eps=1e-05, momentum=0.1, affine=True, track_running_stats=True)
      (14): ReLU(inplace=True)
      (15): Conv2d(64, 64, kernel_size=(3, 3), stride=(1, 1), padding=(1, 1), bias=False)
      (16): BatchNorm2d(64, eps=1e-05, momentum=0.1, affine=True, track_running_stats=True)
      (17): ReLU(inplace=True)
      (18): Conv2d(64, 64, kernel_size=(3, 3), stride=(1, 1), padding=(1, 1), bias=False)
      (19): BatchNorm2d(64, eps=1e-05, momentum=0.1, affine=True, track_running_stats=True)
      (20): ReLU(inplace=True)
      (21): Conv2d(64, 64, kernel_size=(3, 3), stride=(1, 1), padding=(1, 1), bias=False)
      (22): BatchNorm2d(64, eps=1e-05, momentum=0.1, affine=True, track_running_stats=True)
      (23): ReLU(inplace=True)
      (24): Conv2d(64, 64, kernel_size=(3, 3), stride=(1, 1), padding=(1, 1), bias=False)
      (25): BatchNorm2d(64, eps=1e-05, momentum=0.1, affine=True, track_running_stats=True)
      (26): ReLU(inplace=True)
      (27): Conv2d(64, 64, kernel_size=(3, 3), stride=(1, 1), padding=(1, 1), bias=False)
      (28): BatchNorm2d(64, eps=1e-05, momentum=0.1, affine=True, track_running_stats=True)
      (29): ReLU(inplace=True)
      (30): Conv2d(64, 64, kernel_size=(3, 3), stride=(1, 1), padding=(1, 1), bias=False)
      (31): BatchNorm2d(64, eps=1e-05, momentum=0.1, affine=True, track_running_stats=True)
      (32): ReLU(inplace=True)
      (33): Conv2d(64, 64, kernel_size=(3, 3), stride=(1, 1), padding=(1, 1), bias=False)
      (34): BatchNorm2d(64, eps=1e-05, momentum=0.1, affine=True, track_running_stats=True)
      (35): ReLU(inplace=True)
      (36): Conv2d(64, 64, kernel_size=(3, 3), stride=(1, 1), padding=(1, 1), bias=False)
      (37): BatchNorm2d(64, eps=1e-05, momentum=0.1, affine=True, track_running_stats=True)
      (38): ReLU(inplace=True)
      (39): Conv2d(64, 64, kernel_size=(3, 3), stride=(1, 1), padding=(1, 1), bias=False)
      (40): BatchNorm2d(64, eps=1e-05, momentum=0.1, affine=True, track_running_stats=True)
      (41): ReLU(inplace=True)
      (42): Conv2d(64, 64, kernel_size=(3, 3), stride=(1, 1), padding=(1, 1), bias=False)
      (43): BatchNorm2d(64, eps=1e-05, momentum=0.1, affine=True, track_running_stats=True)
      (44): ReLU(inplace=True)
      (45): Conv2d(64, 2, kernel_size=(3, 3), stride=(1, 1), padding=(1, 1), bias=False)
    )
    (1): Sequential(
      (0): Conv2d(2, 64, kernel_size=(3, 3), stride=(1, 1), padding=(1, 1), bias=False)
      (1): BatchNorm2d(64, eps=1e-05, momentum=0.1, affine=True, track_running_stats=True)
      (2): ReLU(inplace=True)
      (3): Conv2d(64, 64, kernel_size=(3, 3), stride=(1, 1), padding=(1, 1), bias=False)
      (4): BatchNorm2d(64, eps=1e-05, momentum=0.1, affine=True, track_running_stats=True)
      (5): ReLU(inplace=True)
      (6): Conv2d(64, 64, kernel_size=(3, 3), stride=(1, 1), padding=(1, 1), bias=False)
      (7): BatchNorm2d(64, eps=1e-05, momentum=0.1, affine=True, track_running_stats=True)
      (8): ReLU(inplace=True)
      (9): Conv2d(64, 64, kernel_size=(3, 3), stride=(1, 1), padding=(1, 1), bias=False)
      (10): BatchNorm2d(64, eps=1e-05, momentum=0.1, affine=True, track_running_stats=True)
      (11): ReLU(inplace=True)
      (12): Conv2d(64, 64, kernel_size=(3, 3), stride=(1, 1), padding=(1, 1), bias=False)
      (13): BatchNorm2d(64, eps=1e-05, momentum=0.1, affine=True, track_running_stats=True)
      (14): ReLU(inplace=True)
      (15): Conv2d(64, 64, kernel_size=(3, 3), stride=(1, 1), padding=(1, 1), bias=False)
      (16): BatchNorm2d(64, eps=1e-05, momentum=0.1, affine=True, track_running_stats=True)
      (17): ReLU(inplace=True)
      (18): Conv2d(64, 64, kernel_size=(3, 3), stride=(1, 1), padding=(1, 1), bias=False)
      (19): BatchNorm2d(64, eps=1e-05, momentum=0.1, affine=True, track_running_stats=True)
      (20): ReLU(inplace=True)
      (21): Conv2d(64, 64, kernel_size=(3, 3), stride=(1, 1), padding=(1, 1), bias=False)
      (22): BatchNorm2d(64, eps=1e-05, momentum=0.1, affine=True, track_running_stats=True)
      (23): ReLU(inplace=True)
      (24): Conv2d(64, 64, kernel_size=(3, 3), stride=(1, 1), padding=(1, 1), bias=False)
      (25): BatchNorm2d(64, eps=1e-05, momentum=0.1, affine=True, track_running_stats=True)
      (26): ReLU(inplace=True)
      (27): Conv2d(64, 64, kernel_size=(3, 3), stride=(1, 1), padding=(1, 1), bias=False)
      (28): BatchNorm2d(64, eps=1e-05, momentum=0.1, affine=True, track_running_stats=True)
      (29): ReLU(inplace=True)
      (30): Conv2d(64, 64, kernel_size=(3, 3), stride=(1, 1), padding=(1, 1), bias=False)
      (31): BatchNorm2d(64, eps=1e-05, momentum=0.1, affine=True, track_running_stats=True)
      (32): ReLU(inplace=True)
      (33): Conv2d(64, 64, kernel_size=(3, 3), stride=(1, 1), padding=(1, 1), bias=False)
      (34): BatchNorm2d(64, eps=1e-05, momentum=0.1, affine=True, track_running_stats=True)
      (35): ReLU(inplace=True)
      (36): Conv2d(64, 64, kernel_size=(3, 3), stride=(1, 1), padding=(1, 1), bias=False)
      (37): BatchNorm2d(64, eps=1e-05, momentum=0.1, affine=True, track_running_stats=True)
      (38): ReLU(inplace=True)
      (39): Conv2d(64, 64, kernel_size=(3, 3), stride=(1, 1), padding=(1, 1), bias=False)
      (40): BatchNorm2d(64, eps=1e-05, momentum=0.1, affine=True, track_running_stats=True)
      (41): ReLU(inplace=True)
      (42): Conv2d(64, 64, kernel_size=(3, 3), stride=(1, 1), padding=(1, 1), bias=False)
      (43): BatchNorm2d(64, eps=1e-05, momentum=0.1, affine=True, track_running_stats=True)
      (44): ReLU(inplace=True)
      (45): Conv2d(64, 2, kernel_size=(3, 3), stride=(1, 1), padding=(1, 1), bias=False)
    )
    (2): Sequential(
      (0): Conv2d(2, 64, kernel_size=(3, 3), stride=(1, 1), padding=(1, 1), bias=False)
      (1): BatchNorm2d(64, eps=1e-05, momentum=0.1, affine=True, track_running_stats=True)
      (2): ReLU(inplace=True)
      (3): Conv2d(64, 64, kernel_size=(3, 3), stride=(1, 1), padding=(1, 1), bias=False)
      (4): BatchNorm2d(64, eps=1e-05, momentum=0.1, affine=True, track_running_stats=True)
      (5): ReLU(inplace=True)
      (6): Conv2d(64, 64, kernel_size=(3, 3), stride=(1, 1), padding=(1, 1), bias=False)
      (7): BatchNorm2d(64, eps=1e-05, momentum=0.1, affine=True, track_running_stats=True)
      (8): ReLU(inplace=True)
      (9): Conv2d(64, 64, kernel_size=(3, 3), stride=(1, 1), padding=(1, 1), bias=False)
      (10): BatchNorm2d(64, eps=1e-05, momentum=0.1, affine=True, track_running_stats=True)
      (11): ReLU(inplace=True)
      (12): Conv2d(64, 64, kernel_size=(3, 3), stride=(1, 1), padding=(1, 1), bias=False)
      (13): BatchNorm2d(64, eps=1e-05, momentum=0.1, affine=True, track_running_stats=True)
      (14): ReLU(inplace=True)
      (15): Conv2d(64, 64, kernel_size=(3, 3), stride=(1, 1), padding=(1, 1), bias=False)
      (16): BatchNorm2d(64, eps=1e-05, momentum=0.1, affine=True, track_running_stats=True)
      (17): ReLU(inplace=True)
      (18): Conv2d(64, 64, kernel_size=(3, 3), stride=(1, 1), padding=(1, 1), bias=False)
      (19): BatchNorm2d(64, eps=1e-05, momentum=0.1, affine=True, track_running_stats=True)
      (20): ReLU(inplace=True)
      (21): Conv2d(64, 64, kernel_size=(3, 3), stride=(1, 1), padding=(1, 1), bias=False)
      (22): BatchNorm2d(64, eps=1e-05, momentum=0.1, affine=True, track_running_stats=True)
      (23): ReLU(inplace=True)
      (24): Conv2d(64, 64, kernel_size=(3, 3), stride=(1, 1), padding=(1, 1), bias=False)
      (25): BatchNorm2d(64, eps=1e-05, momentum=0.1, affine=True, track_running_stats=True)
      (26): ReLU(inplace=True)
      (27): Conv2d(64, 64, kernel_size=(3, 3), stride=(1, 1), padding=(1, 1), bias=False)
      (28): BatchNorm2d(64, eps=1e-05, momentum=0.1, affine=True, track_running_stats=True)
      (29): ReLU(inplace=True)
      (30): Conv2d(64, 64, kernel_size=(3, 3), stride=(1, 1), padding=(1, 1), bias=False)
      (31): BatchNorm2d(64, eps=1e-05, momentum=0.1, affine=True, track_running_stats=True)
      (32): ReLU(inplace=True)
      (33): Conv2d(64, 64, kernel_size=(3, 3), stride=(1, 1), padding=(1, 1), bias=False)
      (34): BatchNorm2d(64, eps=1e-05, momentum=0.1, affine=True, track_running_stats=True)
      (35): ReLU(inplace=True)
      (36): Conv2d(64, 64, kernel_size=(3, 3), stride=(1, 1), padding=(1, 1), bias=False)
      (37): BatchNorm2d(64, eps=1e-05, momentum=0.1, affine=True, track_running_stats=True)
      (38): ReLU(inplace=True)
      (39): Conv2d(64, 64, kernel_size=(3, 3), stride=(1, 1), padding=(1, 1), bias=False)
      (40): BatchNorm2d(64, eps=1e-05, momentum=0.1, affine=True, track_running_stats=True)
      (41): ReLU(inplace=True)
      (42): Conv2d(64, 64, kernel_size=(3, 3), stride=(1, 1), padding=(1, 1), bias=False)
      (43): BatchNorm2d(64, eps=1e-05, momentum=0.1, affine=True, track_running_stats=True)
      (44): ReLU(inplace=True)
      (45): Conv2d(64, 2, kernel_size=(3, 3), stride=(1, 1), padding=(1, 1), bias=False)
    )
  )
)
Estimated model size: 5.95 MB
loss function:: L1Loss()
[2025-02-17 23:26:55] Epoch 1/50, Loss: 124.611465, Train_MMSE: 1.33522, NMMSE: 1.029232, LS_NMSE: 1.859204, Lr: 0.001
[2025-02-17 23:27:38] Epoch 2/50, Loss: 88.130470, Train_MMSE: 0.680571, NMMSE: 0.499538, LS_NMSE: 1.859204, Lr: 0.001
[2025-02-17 23:28:21] Epoch 3/50, Loss: 76.975471, Train_MMSE: 0.382399, NMMSE: 0.36546, LS_NMSE: 1.859204, Lr: 0.001
…
