…
cfg: {'seed': 10, 'dataset': {'train_path': '/mnt/parscratch/users/elq20xd/channel_estimation/cc_data/dataset10_N36K4_3types/train_Dataset_dB-10_N36_K4_L2_S9_Setup100_Reliz1000.mat', 'valid_path': '/mnt/parscratch/users/elq20xd/channel_estimation/cc_data/dataset10_N36K4_3types/test_Dataset_dB-10_N36_K4_L2_S9_Setup10_Reliz1000.mat', 'with_Vpinv': True}, 'dataloader': {'shuffle': True, 'batch_size': 512, 'num_workers': 1}, 'model': {'channel_index': 64, 'num_layers': 3}, 'logger': {'path': None}, 'trainer': {'optimizer': 'SGD', 'lr': 0.001, 'weight_decay': 0.001, 'lr_scheduler': 'Plateau', 'lr_gamma': 0.1, 'min_lr': 1e-06, 'patience': 20}}
model:: DnCNN_MultiBlock_ds(
  (layers): ModuleList(
    (0-2): 3 x Sequential(
      (0): Conv2d(2, 64, kernel_size=(3, 3), stride=(1, 1), padding=(1, 1), bias=False)
      (1): BatchNorm2d(64, eps=1e-05, momentum=0.1, affine=True, track_running_stats=True)
      (2): ReLU(inplace=True)
      (3): Conv2d(64, 64, kernel_size=(3, 3), stride=(1, 1), padding=(1, 1), bias=False)
      (4): BatchNorm2d(64, eps=1e-05, momentum=0.1, affine=True, track_running_stats=True)
      (5): ReLU(inplace=True)
      (6): Conv2d(64, 64, kernel_size=(3, 3), stride=(1, 1), padding=(1, 1), bias=False)
      (7): BatchNorm2d(64, eps=1e-05, momentum=0.1, affine=True, track_running_stats=True)
      (8): ReLU(inplace=True)
      (9): Conv2d(64, 64, kernel_size=(3, 3), stride=(1, 1), padding=(1, 1), bias=False)
      (10): BatchNorm2d(64, eps=1e-05, momentum=0.1, affine=True, track_running_stats=True)
      (11): ReLU(inplace=True)
      (12): Conv2d(64, 64, kernel_size=(3, 3), stride=(1, 1), padding=(1, 1), bias=False)
      (13): BatchNorm2d(64, eps=1e-05, momentum=0.1, affine=True, track_running_stats=True)
      (14): ReLU(inplace=True)
      (15): Conv2d(64, 64, kernel_size=(3, 3), stride=(1, 1), padding=(1, 1), bias=False)
      (16): BatchNorm2d(64, eps=1e-05, momentum=0.1, affine=True, track_running_stats=True)
      (17): ReLU(inplace=True)
      (18): Conv2d(64, 64, kernel_size=(3, 3), stride=(1, 1), padding=(1, 1), bias=False)
      (19): BatchNorm2d(64, eps=1e-05, momentum=0.1, affine=True, track_running_stats=True)
      (20): ReLU(inplace=True)
      (21): Conv2d(64, 2, kernel_size=(3, 3), stride=(1, 1), padding=(1, 1), bias=False)
    )
  )
)
Estimated model size: 2.57 MB
loss function:: L1Loss()
[2025-02-21 21:02:03] Epoch 1/150, Loss: 65.652184, Train_MMSE: 0.276038, NMMSE: 0.236225, LS_NMSE: 0.242602, Lr: 0.001
[2025-02-21 21:02:45] Epoch 2/150, Loss: 64.321518, Train_MMSE: 0.264777, NMMSE: 0.224015, LS_NMSE: 0.242602, Lr: 0.001
[2025-02-21 21:03:26] Epoch 3/150, Loss: 61.847710, Train_MMSE: 0.250125, NMMSE: 0.211113, LS_NMSE: 0.242602, Lr: 0.001
…
