…
cfg: {'seed': 10, 'dataset': {'train_path': '/mnt/parscratch/users/elq20xd/channel_estimation/cc_data/dataset10_N36K4_3types/v1_train_Dataset_dB-10_N36_K4_L2_S9_Setup500_Reliz1000.mat', 'valid_path': '/mnt/parscratch/users/elq20xd/channel_estimation/cc_data/dataset10_N36K4_3types/v1_test_Dataset_dB-10_N36_K4_L2_S9_Setup50_Reliz1000.mat', 'with_Vpinv': True}, 'dataloader': {'shuffle': True, 'batch_size': 512, 'num_workers': 1}, 'model': {'channel_index': 32, 'num_layers': 4}, 'logger': {'path': None}, 'trainer': {'optimizer': 'Adam', 'lr': 0.01, 'weight_decay': 0.001, 'lr_scheduler': 'Plateau', 'lr_gamma': 0.1, 'min_lr': 1e-06, 'patience': 20}}
model:: DiaUNet1D(
  (encoders): ModuleList(
    (0): BasicUnetBlock(
      (blocks): ModuleList(
        (0): Sequential(
          (0): Stdconv1D(
            (conv): Conv1d(2, 32, kernel_size=(3,), stride=(1,), padding=(1,))
            (bn): BatchNorm1d(32, eps=1e-05, momentum=0.1, affine=True, track_running_stats=True)
            (relu): ReLU(inplace=True)
          )
        )
        (1): DynamicDilatedConv(
          (layers): ModuleList(
            (0): Sequential(
              (0): Conv1d(32, 16, kernel_size=(3,), stride=(1,), padding=(1,))
              (1): BatchNorm1d(16, eps=1e-05, momentum=0.1, affine=True, track_running_stats=True)
              (2): ReLU(inplace=True)
            )
            (1): Sequential(
              (0): Conv1d(16, 8, kernel_size=(3,), stride=(1,), padding=(2,), dilation=(2,))
              (1): BatchNorm1d(8, eps=1e-05, momentum=0.1, affine=True, track_running_stats=True)
              (2): ReLU(inplace=True)
            )
            (2): Sequential(
              (0): Conv1d(8, 4, kernel_size=(3,), stride=(1,), padding=(4,), dilation=(4,))
              (1): BatchNorm1d(4, eps=1e-05, momentum=0.1, affine=True, track_running_stats=True)
              (2): ReLU(inplace=True)
            )
            (3): Sequential(
              (0): Conv1d(4, 32, kernel_size=(3,), stride=(1,), padding=(8,), dilation=(8,))
              (1): BatchNorm1d(32, eps=1e-05, momentum=0.1, affine=True, track_running_stats=True)
              (2): ReLU(inplace=True)
            )
          )
          (projection): Conv1d(60, 32, kernel_size=(1,), stride=(1,))
        )
      )
    )
    (1): BasicUnetBlock(
      (blocks): ModuleList(
        (0): Sequential(
          (0): Stdconv1D(
            (conv): Conv1d(32, 64, kernel_size=(3,), stride=(1,), padding=(1,))
            (bn): BatchNorm1d(64, eps=1e-05, momentum=0.1, affine=True, track_running_stats=True)
            (relu): ReLU(inplace=True)
          )
        )
        (1): DynamicDilatedConv(
          (layers): ModuleList(
            (0): Sequential(
              (0): Conv1d(64, 32, kernel_size=(3,), stride=(1,), padding=(1,))
              (1): BatchNorm1d(32, eps=1e-05, momentum=0.1, affine=True, track_running_stats=True)
              (2): ReLU(inplace=True)
            )
            (1): Sequential(
              (0): Conv1d(32, 16, kernel_size=(3,), stride=(1,), padding=(2,), dilation=(2,))
              (1): BatchNorm1d(16, eps=1e-05, momentum=0.1, affine=True, track_running_stats=True)
              (2): ReLU(inplace=True)
            )
            (2): Sequential(
              (0): Conv1d(16, 8, kernel_size=(3,), stride=(1,), padding=(4,), dilation=(4,))
              (1): BatchNorm1d(8, eps=1e-05, momentum=0.1, affine=True, track_running_stats=True)
              (2): ReLU(inplace=True)
            )
            (3): Sequential(
              (0): Conv1d(8, 64, kernel_size=(3,), stride=(1,), padding=(8,), dilation=(8,))
              (1): BatchNorm1d(64, eps=1e-05, momentum=0.1, affine=True, track_running_stats=True)
              (2): ReLU(inplace=True)
            )
          )
          (projection): Conv1d(120, 64, kernel_size=(1,), stride=(1,))
        )
      )
    )
    (2): BasicUnetBlock(
      (blocks): ModuleList(
        (0): Sequential(
          (0): Stdconv1D(
            (conv): Conv1d(64, 128, kernel_size=(3,), stride=(1,), padding=(1,))
            (bn): BatchNorm1d(128, eps=1e-05, momentum=0.1, affine=True, track_running_stats=True)
            (relu): ReLU(inplace=True)
          )
        )
        (1): DynamicDilatedConv(
          (layers): ModuleList(
            (0): Sequential(
              (0): Conv1d(128, 64, kernel_size=(3,), stride=(1,), padding=(1,))
              (1): BatchNorm1d(64, eps=1e-05, momentum=0.1, affine=True, track_running_stats=True)
              (2): ReLU(inplace=True)
            )
            (1): Sequential(
              (0): Conv1d(64, 32, kernel_size=(3,), stride=(1,), padding=(2,), dilation=(2,))
              (1): BatchNorm1d(32, eps=1e-05, momentum=0.1, affine=True, track_running_stats=True)
              (2): ReLU(inplace=True)
            )
            (2): Sequential(
              (0): Conv1d(32, 16, kernel_size=(3,), stride=(1,), padding=(4,), dilation=(4,))
              (1): BatchNorm1d(16, eps=1e-05, momentum=0.1, affine=True, track_running_stats=True)
              (2): ReLU(inplace=True)
            )
            (3): Sequential(
              (0): Conv1d(16, 128, kernel_size=(3,), stride=(1,), padding=(8,), dilation=(8,))
              (1): BatchNorm1d(128, eps=1e-05, momentum=0.1, affine=True, track_running_stats=True)
              (2): ReLU(inplace=True)
            )
          )
          (projection): Conv1d(240, 128, kernel_size=(1,), stride=(1,))
        )
      )
    )
    (3): BasicUnetBlock(
      (blocks): ModuleList(
        (0): Sequential(
          (0): Stdconv1D(
            (conv): Conv1d(128, 256, kernel_size=(3,), stride=(1,), padding=(1,))
            (bn): BatchNorm1d(256, eps=1e-05, momentum=0.1, affine=True, track_running_stats=True)
            (relu): ReLU(inplace=True)
          )
        )
        (1): DynamicDilatedConv(
          (layers): ModuleList(
            (0): Sequential(
              (0): Conv1d(256, 128, kernel_size=(3,), stride=(1,), padding=(1,))
              (1): BatchNorm1d(128, eps=1e-05, momentum=0.1, affine=True, track_running_stats=True)
              (2): ReLU(inplace=True)
            )
            (1): Sequential(
              (0): Conv1d(128, 64, kernel_size=(3,), stride=(1,), padding=(2,), dilation=(2,))
              (1): BatchNorm1d(64, eps=1e-05, momentum=0.1, affine=True, track_running_stats=True)
              (2): ReLU(inplace=True)
            )
            (2): Sequential(
              (0): Conv1d(64, 32, kernel_size=(3,), stride=(1,), padding=(4,), dilation=(4,))
              (1): BatchNorm1d(32, eps=1e-05, momentum=0.1, affine=True, track_running_stats=True)
              (2): ReLU(inplace=True)
            )
            (3): Sequential(
              (0): Conv1d(32, 256, kernel_size=(3,), stride=(1,), padding=(8,), dilation=(8,))
              (1): BatchNorm1d(256, eps=1e-05, momentum=0.1, affine=True, track_running_stats=True)
              (2): ReLU(inplace=True)
            )
          )
          (projection): Conv1d(480, 256, kernel_size=(1,), stride=(1,))
        )
      )
    )
  )
  (pools): ModuleList(
    (0-3): 4 x MaxPool1d(kernel_size=2, stride=2, padding=0, dilation=1, ceil_mode=False)
  )
  (bottleneck): BasicUnetBlock(
    (blocks): ModuleList(
      (0): Sequential(
        (0): Stdconv1D(
          (conv): Conv1d(256, 512, kernel_size=(3,), stride=(1,), padding=(1,))
          (bn): BatchNorm1d(512, eps=1e-05, momentum=0.1, affine=True, track_running_stats=True)
          (relu): ReLU(inplace=True)
        )
      )
      (1): DynamicDilatedConv(
        (layers): ModuleList(
          (0): Sequential(
            (0): Conv1d(512, 256, kernel_size=(3,), stride=(1,), padding=(1,))
            (1): BatchNorm1d(256, eps=1e-05, momentum=0.1, affine=True, track_running_stats=True)
            (2): ReLU(inplace=True)
          )
          (1): Sequential(
            (0): Conv1d(256, 128, kernel_size=(3,), stride=(1,), padding=(2,), dilation=(2,))
            (1): BatchNorm1d(128, eps=1e-05, momentum=0.1, affine=True, track_running_stats=True)
            (2): ReLU(inplace=True)
          )
          (2): Sequential(
            (0): Conv1d(128, 64, kernel_size=(3,), stride=(1,), padding=(4,), dilation=(4,))
            (1): BatchNorm1d(64, eps=1e-05, momentum=0.1, affine=True, track_running_stats=True)
            (2): ReLU(inplace=True)
          )
          (3): Sequential(
            (0): Conv1d(64, 512, kernel_size=(3,), stride=(1,), padding=(8,), dilation=(8,))
            (1): BatchNorm1d(512, eps=1e-05, momentum=0.1, affine=True, track_running_stats=True)
            (2): ReLU(inplace=True)
          )
        )
        (projection): Conv1d(960, 512, kernel_size=(1,), stride=(1,))
      )
    )
  )
  (upconvs): ModuleList(
    (0): ConvTranspose1d(512, 256, kernel_size=(2,), stride=(2,))
    (1): ConvTranspose1d(256, 128, kernel_size=(2,), stride=(2,))
    (2): ConvTranspose1d(128, 64, kernel_size=(2,), stride=(2,))
    (3): ConvTranspose1d(64, 32, kernel_size=(2,), stride=(2,))
  )
  (decoders): ModuleList(
    (0): BasicUnetBlock(
      (blocks): ModuleList(
        (0): Sequential(
          (0): Stdconv1D(
            (conv): Conv1d(512, 256, kernel_size=(3,), stride=(1,), padding=(1,))
            (bn): BatchNorm1d(256, eps=1e-05, momentum=0.1, affine=True, track_running_stats=True)
            (relu): ReLU(inplace=True)
          )
        )
        (1): DynamicDilatedConv(
          (layers): ModuleList(
            (0): Sequential(
              (0): Conv1d(256, 128, kernel_size=(3,), stride=(1,), padding=(1,))
              (1): BatchNorm1d(128, eps=1e-05, momentum=0.1, affine=True, track_running_stats=True)
              (2): ReLU(inplace=True)
            )
            (1): Sequential(
              (0): Conv1d(128, 64, kernel_size=(3,), stride=(1,), padding=(2,), dilation=(2,))
              (1): BatchNorm1d(64, eps=1e-05, momentum=0.1, affine=True, track_running_stats=True)
              (2): ReLU(inplace=True)
            )
            (2): Sequential(
              (0): Conv1d(64, 32, kernel_size=(3,), stride=(1,), padding=(4,), dilation=(4,))
              (1): BatchNorm1d(32, eps=1e-05, momentum=0.1, affine=True, track_running_stats=True)
              (2): ReLU(inplace=True)
            )
            (3): Sequential(
              (0): Conv1d(32, 256, kernel_size=(3,), stride=(1,), padding=(8,), dilation=(8,))
              (1): BatchNorm1d(256, eps=1e-05, momentum=0.1, affine=True, track_running_stats=True)
              (2): ReLU(inplace=True)
            )
          )
          (projection): Conv1d(480, 256, kernel_size=(1,), stride=(1,))
        )
      )
    )
    (1): BasicUnetBlock(
      (blocks): ModuleList(
        (0): Sequential(
          (0): Stdconv1D(
            (conv): Conv1d(256, 128, kernel_size=(3,), stride=(1,), padding=(1,))
            (bn): BatchNorm1d(128, eps=1e-05, momentum=0.1, affine=True, track_running_stats=True)
            (relu): ReLU(inplace=True)
          )
        )
        (1): DynamicDilatedConv(
          (layers): ModuleList(
            (0): Sequential(
              (0): Conv1d(128, 64, kernel_size=(3,), stride=(1,), padding=(1,))
              (1): BatchNorm1d(64, eps=1e-05, momentum=0.1, affine=True, track_running_stats=True)
              (2): ReLU(inplace=True)
            )
            (1): Sequential(
              (0): Conv1d(64, 32, kernel_size=(3,), stride=(1,), padding=(2,), dilation=(2,))
              (1): BatchNorm1d(32, eps=1e-05, momentum=0.1, affine=True, track_running_stats=True)
              (2): ReLU(inplace=True)
            )
            (2): Sequential(
              (0): Conv1d(32, 16, kernel_size=(3,), stride=(1,), padding=(4,), dilation=(4,))
              (1): BatchNorm1d(16, eps=1e-05, momentum=0.1, affine=True, track_running_stats=True)
              (2): ReLU(inplace=True)
            )
            (3): Sequential(
              (0): Conv1d(16, 128, kernel_size=(3,), stride=(1,), padding=(8,), dilation=(8,))
              (1): BatchNorm1d(128, eps=1e-05, momentum=0.1, affine=True, track_running_stats=True)
              (2): ReLU(inplace=True)
            )
          )
          (projection): Conv1d(240, 128, kernel_size=(1,), stride=(1,))
        )
      )
    )
    (2): BasicUnetBlock(
      (blocks): ModuleList(
        (0): Sequential(
          (0): Stdconv1D(
            (conv): Conv1d(128, 64, kernel_size=(3,), stride=(1,), padding=(1,))
            (bn): BatchNorm1d(64, eps=1e-05, momentum=0.1, affine=True, track_running_stats=True)
            (relu): ReLU(inplace=True)
          )
        )
        (1): DynamicDilatedConv(
          (layers): ModuleList(
            (0): Sequential(
              (0): Conv1d(64, 32, kernel_size=(3,), stride=(1,), padding=(1,))
              (1): BatchNorm1d(32, eps=1e-05, momentum=0.1, affine=True, track_running_stats=True)
              (2): ReLU(inplace=True)
            )
            (1): Sequential(
              (0): Conv1d(32, 16, kernel_size=(3,), stride=(1,), padding=(2,), dilation=(2,))
              (1): BatchNorm1d(16, eps=1e-05, momentum=0.1, affine=True, track_running_stats=True)
              (2): ReLU(inplace=True)
            )
            (2): Sequential(
              (0): Conv1d(16, 8, kernel_size=(3,), stride=(1,), padding=(4,), dilation=(4,))
              (1): BatchNorm1d(8, eps=1e-05, momentum=0.1, affine=True, track_running_stats=True)
              (2): ReLU(inplace=True)
            )
            (3): Sequential(
              (0): Conv1d(8, 64, kernel_size=(3,), stride=(1,), padding=(8,), dilation=(8,))
              (1): BatchNorm1d(64, eps=1e-05, momentum=0.1, affine=True, track_running_stats=True)
              (2): ReLU(inplace=True)
            )
          )
          (projection): Conv1d(120, 64, kernel_size=(1,), stride=(1,))
        )
      )
    )
    (3): BasicUnetBlock(
      (blocks): ModuleList(
        (0): Sequential(
          (0): Stdconv1D(
            (conv): Conv1d(64, 32, kernel_size=(3,), stride=(1,), padding=(1,))
            (bn): BatchNorm1d(32, eps=1e-05, momentum=0.1, affine=True, track_running_stats=True)
            (relu): ReLU(inplace=True)
          )
        )
        (1): DynamicDilatedConv(
          (layers): ModuleList(
            (0): Sequential(
              (0): Conv1d(32, 16, kernel_size=(3,), stride=(1,), padding=(1,))
              (1): BatchNorm1d(16, eps=1e-05, momentum=0.1, affine=True, track_running_stats=True)
              (2): ReLU(inplace=True)
            )
            (1): Sequential(
              (0): Conv1d(16, 8, kernel_size=(3,), stride=(1,), padding=(2,), dilation=(2,))
              (1): BatchNorm1d(8, eps=1e-05, momentum=0.1, affine=True, track_running_stats=True)
              (2): ReLU(inplace=True)
            )
            (2): Sequential(
              (0): Conv1d(8, 4, kernel_size=(3,), stride=(1,), padding=(4,), dilation=(4,))
              (1): BatchNorm1d(4, eps=1e-05, momentum=0.1, affine=True, track_running_stats=True)
              (2): ReLU(inplace=True)
            )
            (3): Sequential(
              (0): Conv1d(4, 32, kernel_size=(3,), stride=(1,), padding=(8,), dilation=(8,))
              (1): BatchNorm1d(32, eps=1e-05, momentum=0.1, affine=True, track_running_stats=True)
              (2): ReLU(inplace=True)
            )
          )
          (projection): Conv1d(60, 32, kernel_size=(1,), stride=(1,))
        )
      )
    )
  )
  (final_conv): Conv1d(32, 2, kernel_size=(1,), stride=(1,))
)
Estimated model size: 12.39 MB
loss function:: L1Loss()
[2025-02-21 23:01:45] Epoch 1/150, Loss: 35.360497, Train_MMSE: 0.110973, NMMSE: 0.072493, LS_NMSE: 0.209181, Lr: 0.01
[2025-02-21 23:03:20] Epoch 2/150, Loss: 34.851093, Train_MMSE: 0.073543, NMMSE: 0.070328, LS_NMSE: 0.209181, Lr: 0.01
[2025-02-21 23:04:47] Epoch 3/150, Loss: 34.917850, Train_MMSE: 0.072161, NMMSE: 0.070418, LS_NMSE: 0.209181, Lr: 0.01
…
