…
 'model': {'name': 'SimpleCNN',
           'params': {'hidden_channels': 64,
                      'in_channels': 2,
                      'num_layers': 10,
                      'out_channels': 2}},
 'seed': 10,
 'trainer': {'epoch_num': 200,
             'lr_scheduler': {'name': 'StepLR',
                              'params': {'gamma': 0.1, 'step_size': 50}},
             'optimizer': {'name': 'SGD',
                           'params': {'lr': 0.01,
                                      'momentum': 0.9,
                                      'weight_decay': 0.001}}}}
model:: SimpleCNN(
  (cnn): Sequential(
    (0): Conv2d(2, 64, kernel_size=(3, 3), stride=(1, 1), padding=(1, 1))
    (1): ReLU(inplace=True)
    (2): Conv2d(64, 64, kernel_size=(3, 3), stride=(1, 1), padding=(1, 1))
    (3): ReLU(inplace=True)
    (4): BatchNorm2d(64, eps=0.0001, momentum=0.0, affine=True, track_running_stats=True)
    (5): Conv2d(64, 64, kernel_size=(3, 3), stride=(1, 1), padding=(1, 1))
    (6): ReLU(inplace=True)
    (7): BatchNorm2d(64, eps=0.0001, momentum=0.0, affine=True, track_running_stats=True)
    (8): Conv2d(64, 64, kernel_size=(3, 3), stride=(1, 1), padding=(1, 1))
    (9): ReLU(inplace=True)
    (10): BatchNorm2d(64, eps=0.0001, momentum=0.0, affine=True, track_running_stats=True)
    (11): Conv2d(64, 64, kernel_size=(3, 3), stride=(1, 1), padding=(1, 1))
    (12): ReLU(inplace=True)
    (13): BatchNorm2d(64, eps=0.0001, momentum=0.0, affine=True, track_running_stats=True)
    (14): Conv2d(64, 64, kernel_size=(3, 3), stride=(1, 1), padding=(1, 1))
    (15): ReLU(inplace=True)
    (16): BatchNorm2d(64, eps=0.0001, momentum=0.0, affine=True, track_running_stats=True)
    (17): Conv2d(64, 64, kernel_size=(3, 3), stride=(1, 1), padding=(1, 1))
    (18): ReLU(inplace=True)
    (19): BatchNorm2d(64, eps=0.0001, momentum=0.0, affine=True, track_running_stats=True)
    (20): Conv2d(64, 64, kernel_size=(3, 3), stride=(1, 1), padding=(1, 1))
    (21): ReLU(inplace=True)
    (22): BatchNorm2d(64, eps=0.0001, momentum=0.0, affine=True, track_running_stats=True)
    (23): Conv2d(64, 64, kernel_size=(3, 3), stride=(1, 1), padding=(1, 1))
    (24): ReLU(inplace=True)
    (25): BatchNorm2d(64, eps=0.0001, momentum=0.0, affine=True, track_running_stats=True)
    (26): Conv2d(64, 2, kernel_size=(3, 3), stride=(1, 1), padding=(1, 1))
  )
)
Estimated model size: 1.14 MB
optimizer: SGD (
Parameter Group 0
    dampening: 0
    differentiable: False
    foreach: None
    fused: None
    lr: 0.01
    maximize: False
    momentum: 0.9
    nesterov: False
    weight_decay: 0.001
)
scheduler: <torch.optim.lr_scheduler.StepLR object at 0x7fb794b5a300>
loss function:: L1Loss()
[2025-02-22 21:00:01] Epoch 1/200, Loss: 56.655891, Train_MMSE: 0.511456, NMMSE: 11834.822924, LS_NMSE: 0.242602, Lr: 0.01
…
